…
    ENABLED: False
    FLIP: True
    MAX_SIZE: 4000
    MIN_SIZES: (400, 500, 600, 700, 800, 900, 1000, 1100, 1200)
  DETECTIONS_PER_IMAGE: 100
  EVAL_PERIOD: 0
  EXPECTED_RESULTS: []
  KEYPOINT_OKS_SIGMAS: []
  PRECISE_BN:
    ENABLED: False
    NUM_ITER: 200
VERSION: 2
VIS_PERIOD: 0
[32m[02/24 14:34:40 detectron2]: [0mFull config saved to output/keypoint_rcnn_hrnet_w18_1x_20210224/config.yaml
[32m[02/24 14:34:40 d2.utils.env]: [0mUsing a generated random seed 40593582
[32m[02/24 14:34:44 d2.engine.defaults]: [0mModel:
GeneralizedRCNN(
  (backbone): HRFPN(
    (reduction_conv): Sequential(
      (0): Conv2d(270, 256, kernel_size=(1, 1), stride=(1, 1))
    )
    (fpn_conv): ModuleList(
      (0): Conv2d(256, 256, kernel_size=(3, 3), stride=(1, 1), padding=(1, 1))
      (1): Conv2d(256, 256, kernel_size=(3, 3), stride=(1, 1), padding=(1, 1))
      (2): Conv2d(256, 256, kernel_size=(3, 3), stride=(1, 1), padding=(1, 1))
      (3): Conv2d(256, 256, kernel_size=(3, 3), stride=(1, 1), padding=(1, 1))
      (4): Conv2d(256, 256, kernel_size=(3, 3), stride=(1, 1), padding=(1, 1))
    )
    (bottom_up): HRNet(
      (conv1): Conv2d(3, 64, kernel_size=(3, 3), stride=(2, 2), padding=(1, 1), bias=False)
      (bn1): FrozenBatchNorm2d(num_features=64, eps=1e-05)
      (conv2): Conv2d(64, 64, kernel_size=(3, 3), stride=(2, 2), padding=(1, 1), bias=False)
      (bn2): FrozenBatchNorm2d(num_features=64, eps=1e-05)
      (relu): ReLU(inplace=True)
      (layer1): Sequential(
        (0): Bottleneck(
          (conv1): Conv2d(64, 64, kernel_size=(1, 1), stride=(1, 1), bias=False)
          (bn1): FrozenBatchNorm2d(num_features=64, eps=1e-05)
          (conv2): Conv2d(64, 64, kernel_size=(3, 3), stride=(1, 1), padding=(1, 1), bias=False)
          (bn2): FrozenBatchNorm2d(num_features=64, eps=1e-05)
          (conv3): Conv2d(64, 256, kernel_size=(1, 1), stride=(1, 1), bias=False)
          (bn3): FrozenBatchNorm2d(num_features=256, eps=1e-05)
          (relu): ReLU(inplace=True)
          (downsample): Sequential(
            (0): Conv2d(64, 256, kernel_size=(1, 1), stride=(1, 1), bias=False)
            (1): FrozenBatchNorm2d(num_features=256, eps=1e-05)
          )
        )
        (1): Bottleneck(
          (conv1): Conv2d(256, 64, kernel_size=(1, 1), stride=(1, 1), bias=False)
          (bn1): FrozenBatchNorm2d(num_features=64, eps=1e-05)
          (conv2): Conv2d(64, 64, kernel_size=(3, 3), stride=(1, 1), padding=(1, 1), bias=False)
          (bn2): FrozenBatchNorm2d(num_features=64, eps=1e-05)
          (conv3): Conv2d(64, 256, kernel_size=(1, 1), stride=(1, 1), bias=False)
          (bn3): FrozenBatchNorm2d(num_features=256, eps=1e-05)
          (relu): ReLU(inplace=True)
        )
        (2): Bottleneck(
          (conv1): Conv2d(256, 64, kernel_size=(1, 1), stride=(1, 1), bias=False)
          (bn1): FrozenBatchNorm2d(num_features=64, eps=1e-05)
          (conv2): Conv2d(64, 64, kernel_size=(3, 3), stride=(1, 1), padding=(1, 1), bias=False)
          (bn2): FrozenBatchNorm2d(num_features=64, eps=1e-05)
          (conv3): Conv2d(64, 256, kernel_size=(1, 1), stride=(1, 1), bias=False)
          (bn3): FrozenBatchNorm2d(num_features=256, eps=1e-05)
          (relu): ReLU(inplace=True)
        )
        (3): Bottleneck(
          (conv1): Conv2d(256, 64, kernel_size=(1, 1), stride=(1, 1), bias=False)
          (bn1): FrozenBatchNorm2d(num_features=64, eps=1e-05)
          (conv2): Conv2d(64, 64, kernel_size=(3, 3), stride=(1, 1), padding=(1, 1), bias=False)
          (bn2): FrozenBatchNorm2d(num_features=64, eps=1e-05)
          (conv3): Conv2d(64, 256, kernel_size=(1, 1), stride=(1, 1), bias=False)
          (bn3): FrozenBatchNorm2d(num_features=256, eps=1e-05)
          (relu): ReLU(inplace=True)
        )
      )
      (transition1): ModuleList(
        (0): Sequential(
          (0): Conv2d(256, 18, kernel_size=(3, 3), stride=(1, 1), padding=(1, 1), bias=False)
          (1): FrozenBatchNorm2d(num_features=18, eps=1e-05)
          (2): ReLU(inplace=True)
        )
        (1): Sequential(
          (0): Sequential(
            (0): Conv2d(256, 36, kernel_size=(3, 3), stride=(2, 2), padding=(1, 1), bias=False)
            (1): FrozenBatchNorm2d(num_features=36, eps=1e-05)
            (2): ReLU(inplace=True)
          )
        )
      )
      (stage2): Sequential(
        (0): HighResolutionModule(
          (branches): ModuleList(
            (0): Sequential(
              (0): BasicBlock(
                (conv1): Conv2d(18, 18, kernel_size=(3, 3), stride=(1, 1), padding=(1, 1), bias=False)
                (bn1): FrozenBatchNorm2d(num_features=18, eps=1e-05)
                (relu): ReLU(inplace=True)
                (conv2): Conv2d(18, 18, kernel_size=(3, 3), stride=(1, 1), padding=(1, 1), bias=False)
                (bn2): FrozenBatchNorm2d(num_features=18, eps=1e-05)
              )
              (1): BasicBlock(
                (conv1): Conv2d(18, 18, kernel_size=(3, 3), stride=(1, 1), padding=(1, 1), bias=False)
                (bn1): FrozenBatchNorm2d(num_features=18, eps=1e-05)
                (relu): ReLU(inplace=True)
                (conv2): Conv2d(18, 18, kernel_size=(3, 3), stride=(1, 1), padding=(1, 1), bias=False)
                (bn2): FrozenBatchNorm2d(num_features=18, eps=1e-05)
              )
              (2): BasicBlock(
                (conv1): Conv2d(18, 18, kernel_size=(3, 3), stride=(1, 1), padding=(1, 1), bias=False)
                (bn1): FrozenBatchNorm2d(num_features=18, eps=1e-05)
                (relu): ReLU(inplace=True)
                (conv2): Conv2d(18, 18, kernel_size=(3, 3), stride=(1, 1), padding=(1, 1), bias=False)
                (bn2): FrozenBatchNorm2d(num_features=18, eps=1e-05)
              )
              (3): BasicBlock(
                (conv1): Conv2d(18, 18, kernel_size=(3, 3), stride=(1, 1), padding=(1, 1), bias=False)
                (bn1): FrozenBatchNorm2d(num_features=18, eps=1e-05)
                (relu): ReLU(inplace=True)
                (conv2): Conv2d(18, 18, kernel_size=(3, 3), stride=(1, 1), padding=(1, 1), bias=False)
                (bn2): FrozenBatchNorm2d(num_features=18, eps=1e-05)
              )
            )
            (1): Sequential(
              (0): BasicBlock(
                (conv1): Conv2d(36, 36, kernel_size=(3, 3), stride=(1, 1), padding=(1, 1), bias=False)
                (bn1): FrozenBatchNorm2d(num_features=36, eps=1e-05)
                (relu): ReLU(inplace=True)
                (conv2): Conv2d(36, 36, kernel_size=(3, 3), stride=(1, 1), padding=(1, 1), bias=False)
                (bn2): FrozenBatchNorm2d(num_features=36, eps=1e-05)
              )
              (1): BasicBlock(
                (conv1): Conv2d(36, 36, kernel_size=(3, 3), stride=(1, 1), padding=(1, 1), bias=False)
                (bn1): FrozenBatchNorm2d(num_features=36, eps=1e-05)
                (relu): ReLU(inplace=True)
                (conv2): Conv2d(36, 36, kernel_size=(3, 3), stride=(1, 1), padding=(1, 1), bias=False)
                (bn2): FrozenBatchNorm2d(num_features=36, eps=1e-05)
              )
              (2): BasicBlock(
                (conv1): Conv2d(36, 36, kernel_size=(3, 3), stride=(1, 1), padding=(1, 1), bias=False)
                (bn1): FrozenBatchNorm2d(num_features=36, eps=1e-05)
                (relu): ReLU(inplace=True)
                (conv2): Conv2d(36, 36, kernel_size=(3, 3), stride=(1, 1), padding=(1, 1), bias=False)
                (bn2): FrozenBatchNorm2d(num_features=36, eps=1e-05)
              )
              (3): BasicBlock(
                (conv1): Conv2d(36, 36, kernel_size=(3, 3), stride=(1, 1), padding=(1, 1), bias=False)
                (bn1): FrozenBatchNorm2d(num_features=36, eps=1e-05)
                (relu): ReLU(inplace=True)
                (conv2): Conv2d(36, 36, kernel_size=(3, 3), stride=(1, 1), padding=(1, 1), bias=False)
                (bn2): FrozenBatchNorm2d(num_features=36, eps=1e-05)
              )
            )
          )
          (fuse_layers): ModuleList(
            (0): ModuleList(
              (0): None
              (1): Sequential(
                (0): Conv2d(36, 18, kernel_size=(1, 1), stride=(1, 1), bias=False)
                (1): FrozenBatchNorm2d(num_features=18, eps=1e-05)
                (2): Upsample(scale_factor=2.0, mode=nearest)
              )
            )
            (1): ModuleList(
              (0): Sequential(
                (0): Sequential(
                  (0): Conv2d(18, 36, kernel_size=(3, 3), stride=(2, 2), padding=(1, 1), bias=False)
                  (1): FrozenBatchNorm2d(num_features=36, eps=1e-05)
                )
              )
              (1): None
            )
          )
          (relu): ReLU(inplace=True)
        )
      )
      (transition2): ModuleList(
        (0): None
        (1): None
        (2): Sequential(
          (0): Sequential(
            (0): Conv2d(36, 72, kernel_size=(3, 3), stride=(2, 2), padding=(1, 1), bias=False)
            (1): FrozenBatchNorm2d(num_features=72, eps=1e-05)
            (2): ReLU(inplace=True)
          )
        )
      )
      (stage3): Sequential(
        (0): HighResolutionModule(
          (branches): ModuleList(
            (0): Sequential(
              (0): BasicBlock(
                (conv1): Conv2d(18, 18, kernel_size=(3, 3), stride=(1, 1), padding=(1, 1), bias=False)
                (bn1): FrozenBatchNorm2d(num_features=18, eps=1e-05)
                (relu): ReLU(inplace=True)
                (conv2): Conv2d(18, 18, kernel_size=(3, 3), stride=(1, 1), padding=(1, 1), bias=False)
                (bn2): FrozenBatchNorm2d(num_features=18, eps=1e-05)
              )
              (1): BasicBlock(
                (conv1): Conv2d(18, 18, kernel_size=(3, 3), stride=(1, 1), padding=(1, 1), bias=False)
                (bn1): FrozenBatchNorm2d(num_features=18, eps=1e-05)
                (relu): ReLU(inplace=True)
                (conv2): Conv2d(18, 18, kernel_size=(3, 3), stride=(1, 1), padding=(1, 1), bias=False)
                (bn2): FrozenBatchNorm2d(num_features=18, eps=1e-05)
              )
              (2): BasicBlock(
                (conv1): Conv2d(18, 18, kernel_size=(3, 3), stride=(1, 1), padding=(1, 1), bias=False)
                (bn1): FrozenBatchNorm2d(num_features=18, eps=1e-05)
                (relu): ReLU(inplace=True)
                (conv2): Conv2d(18, 18, kernel_size=(3, 3), stride=(1, 1), padding=(1, 1), bias=False)
                (bn2): FrozenBatchNorm2d(num_features=18, eps=1e-05)
              )
              (3): BasicBlock(
                (conv1): Conv2d(18, 18, kernel_size=(3, 3), stride=(1, 1), padding=(1, 1), bias=False)
                (bn1): FrozenBatchNorm2d(num_features=18, eps=1e-05)
                (relu): ReLU(inplace=True)
                (conv2): Conv2d(18, 18, kernel_size=(3, 3), stride=(1, 1), padding=(1, 1), bias=False)
                (bn2): FrozenBatchNorm2d(num_features=18, eps=1e-05)
              )
            )
            (1): Sequential(
              (0): BasicBlock(
                (conv1): Conv2d(36, 36, kernel_size=(3, 3), stride=(1, 1), padding=(1, 1), bias=False)
                (bn1): FrozenBatchNorm2d(num_features=36, eps=1e-05)
                (relu): ReLU(inplace=True)
                (conv2): Conv2d(36, 36, kernel_size=(3, 3), stride=(1, 1), padding=(1, 1), bias=False)
                (bn2): FrozenBatchNorm2d(num_features=36, eps=1e-05)
              )
              (1): BasicBlock(
                (conv1): Conv2d(36, 36, kernel_size=(3, 3), stride=(1, 1), padding=(1, 1), bias=False)
                (bn1): FrozenBatchNorm2d(num_features=36, eps=1e-05)
                (relu): ReLU(inplace=True)
                (conv2): Conv2d(36, 36, kernel_size=(3, 3), stride=(1, 1), padding=(1, 1), bias=False)
                (bn2): FrozenBatchNorm2d(num_features=36, eps=1e-05)
              )
              (2): BasicBlock(
                (conv1): Conv2d(36, 36, kernel_size=(3, 3), stride=(1, 1), padding=(1, 1), bias=False)
                (bn1): FrozenBatchNorm2d(num_features=36, eps=1e-05)
                (relu): ReLU(inplace=True)
                (conv2): Conv2d(36, 36, kernel_size=(3, 3), stride=(1, 1), padding=(1, 1), bias=False)
                (bn2): FrozenBatchNorm2d(num_features=36, eps=1e-05)
              )
              (3): BasicBlock(
                (conv1): Conv2d(36, 36, kernel_size=(3, 3), stride=(1, 1), padding=(1, 1), bias=False)
                (bn1): FrozenBatchNorm2d(num_features=36, eps=1e-05)
                (relu): ReLU(inplace=True)
                (conv2): Conv2d(36, 36, kernel_size=(3, 3), stride=(1, 1), padding=(1, 1), bias=False)
                (bn2): FrozenBatchNorm2d(num_features=36, eps=1e-05)
              )
            )
            (2): Sequential(
              (0): BasicBlock(
                (conv1): Conv2d(72, 72, kernel_size=(3, 3), stride=(1, 1), padding=(1, 1), bias=False)
                (bn1): FrozenBatchNorm2d(num_features=72, eps=1e-05)
                (relu): ReLU(inplace=True)
                (conv2): Conv2d(72, 72, kernel_size=(3, 3), stride=(1, 1), padding=(1, 1), bias=False)
                (bn2): FrozenBatchNorm2d(num_features=72, eps=1e-05)
              )
              (1): BasicBlock(
                (conv1): Conv2d(72, 72, kernel_size=(3, 3), stride=(1, 1), padding=(1, 1), bias=False)
                (bn1): FrozenBatchNorm2d(num_features=72, eps=1e-05)
                (relu): ReLU(inplace=True)
                (conv2): Conv2d(72, 72, kernel_size=(3, 3), stride=(1, 1), padding=(1, 1), bias=False)
                (bn2): FrozenBatchNorm2d(num_features=72, eps=1e-05)
              )
              (2): BasicBlock(
                (conv1): Conv2d(72, 72, kernel_size=(3, 3), stride=(1, 1), padding=(1, 1), bias=False)
                (bn1): FrozenBatchNorm2d(num_features=72, eps=1e-05)
                (relu): ReLU(inplace=True)
                (conv2): Conv2d(72, 72, kernel_size=(3, 3), stride=(1, 1), padding=(1, 1), bias=False)
                (bn2): FrozenBatchNorm2d(num_features=72, eps=1e-05)
              )
              (3): BasicBlock(
                (conv1): Conv2d(72, 72, kernel_size=(3, 3), stride=(1, 1), padding=(1, 1), bias=False)
                (bn1): FrozenBatchNorm2d(num_features=72, eps=1e-05)
                (relu): ReLU(inplace=True)
                (conv2): Conv2d(72, 72, kernel_size=(3, 3), stride=(1, 1), padding=(1, 1), bias=False)
                (bn2): FrozenBatchNorm2d(num_features=72, eps=1e-05)
              )
            )
          )
          (fuse_layers): ModuleList(
            (0): ModuleList(
              (0): None
              (1): Sequential(
                (0): Conv2d(36, 18, kernel_size=(1, 1), stride=(1, 1), bias=False)
                (1): FrozenBatchNorm2d(num_features=18, eps=1e-05)
                (2): Upsample(scale_factor=2.0, mode=nearest)
              )
              (2): Sequential(
                (0): Conv2d(72, 18, kernel_size=(1, 1), stride=(1, 1), bias=False)
                (1): FrozenBatchNorm2d(num_features=18, eps=1e-05)
                (2): Upsample(scale_factor=4.0, mode=nearest)
              )
            )
            (1): ModuleList(
              (0): Sequential(
                (0): Sequential(
                  (0): Conv2d(18, 36, kernel_size=(3, 3), stride=(2, 2), padding=(1, 1), bias=False)
                  (1): FrozenBatchNorm2d(num_features=36, eps=1e-05)
                )
              )
              (1): None
              (2): Sequential(
                (0): Conv2d(72, 36, kernel_size=(1, 1), stride=(1, 1), bias=False)
                (1): FrozenBatchNorm2d(num_features=36, eps=1e-05)
                (2): Upsample(scale_factor=2.0, mode=nearest)
              )
            )
            (2): ModuleList(
              (0): Sequential(
                (0): Sequential(
                  (0): Conv2d(18, 18, kernel_size=(3, 3), stride=(2, 2), padding=(1, 1), bias=False)
                  (1): FrozenBatchNorm2d(num_features=18, eps=1e-05)
                  (2): ReLU(inplace=True)
                )
                (1): Sequential(
                  (0): Conv2d(18, 72, kernel_size=(3, 3), stride=(2, 2), padding=(1, 1), bias=False)
                  (1): FrozenBatchNorm2d(num_features=72, eps=1e-05)
                )
              )
              (1): Sequential(
                (0): Sequential(
                  (0): Conv2d(36, 72, kernel_size=(3, 3), stride=(2, 2), padding=(1, 1), bias=False)
                  (1): FrozenBatchNorm2d(num_features=72, eps=1e-05)
                )
              )
              (2): None
            )
          )
          (relu): ReLU(inplace=True)
        )
        (1): HighResolutionModule(
          (branches): ModuleList(
            (0): Sequential(
              (0): BasicBlock(
                (conv1): Conv2d(18, 18, kernel_size=(3, 3), stride=(1, 1), padding=(1, 1), bias=False)
                (bn1): FrozenBatchNorm2d(num_features=18, eps=1e-05)
                (relu): ReLU(inplace=True)
                (conv2): Conv2d(18, 18, kernel_size=(3, 3), stride=(1, 1), padding=(1, 1), bias=False)
                (bn2): FrozenBatchNorm2d(num_features=18, eps=1e-05)
              )
              (1): BasicBlock(
                (conv1): Conv2d(18, 18, kernel_size=(3, 3), stride=(1, 1), padding=(1, 1), bias=False)
                (bn1): FrozenBatchNorm2d(num_features=18, eps=1e-05)
                (relu): ReLU(inplace=True)
                (conv2): Conv2d(18, 18, kernel_size=(3, 3), stride=(1, 1), padding=(1, 1), bias=False)
                (bn2): FrozenBatchNorm2d(num_features=18, eps=1e-05)
              )
              (2): BasicBlock(
                (conv1): Conv2d(18, 18, kernel_size=(3, 3), stride=(1, 1), padding=(1, 1), bias=False)
                (bn1): FrozenBatchNorm2d(num_features=18, eps=1e-05)
                (relu): ReLU(inplace=True)
                (conv2): Conv2d(18, 18, kernel_size=(3, 3), stride=(1, 1), padding=(1, 1), bias=False)
                (bn2): FrozenBatchNorm2d(num_features=18, eps=1e-05)
              )
              (3): BasicBlock(
                (conv1): Conv2d(18, 18, kernel_size=(3, 3), stride=(1, 1), padding=(1, 1), bias=False)
                (bn1): FrozenBatchNorm2d(num_features=18, eps=1e-05)
                (relu): ReLU(inplace=True)
                (conv2): Conv2d(18, 18, kernel_size=(3, 3), stride=(1, 1), padding=(1, 1), bias=False)
                (bn2): FrozenBatchNorm2d(num_features=18, eps=1e-05)
              )
            )
            (1): Sequential(
              (0): BasicBlock(
                (conv1): Conv2d(36, 36, kernel_size=(3, 3), stride=(1, 1), padding=(1, 1), bias=False)
                (bn1): FrozenBatchNorm2d(num_features=36, eps=1e-05)
                (relu): ReLU(inplace=True)
                (conv2): Conv2d(36, 36, kernel_size=(3, 3), stride=(1, 1), padding=(1, 1), bias=False)
                (bn2): FrozenBatchNorm2d(num_features=36, eps=1e-05)
              )
              (1): BasicBlock(
                (conv1): Conv2d(36, 36, kernel_size=(3, 3), stride=(1, 1), padding=(1, 1), bias=False)
                (bn1): FrozenBatchNorm2d(num_features=36, eps=1e-05)
                (relu): ReLU(inplace=True)
                (conv2): Conv2d(36, 36, kernel_size=(3, 3), stride=(1, 1), padding=(1, 1), bias=False)
                (bn2): FrozenBatchNorm2d(num_features=36, eps=1e-05)
              )
              (2): BasicBlock(
                (conv1): Conv2d(36, 36, kernel_size=(3, 3), stride=(1, 1), padding=(1, 1), bias=False)
                (bn1): FrozenBatchNorm2d(num_features=36, eps=1e-05)
                (relu): ReLU(inplace=True)
                (conv2): Conv2d(36, 36, kernel_size=(3, 3), stride=(1, 1), padding=(1, 1), bias=False)
                (bn2): FrozenBatchNorm2d(num_features=36, eps=1e-05)
              )
              (3): BasicBlock(
                (conv1): Conv2d(36, 36, kernel_size=(3, 3), stride=(1, 1), padding=(1, 1), bias=False)
                (bn1): FrozenBatchNorm2d(num_features=36, eps=1e-05)
                (relu): ReLU(inplace=True)
                (conv2): Conv2d(36, 36, kernel_size=(3, 3), stride=(1, 1), padding=(1, 1), bias=False)
                (bn2): FrozenBatchNorm2d(num_features=36, eps=1e-05)
              )
            )
            (2): Sequential(
              (0): BasicBlock(
                (conv1): Conv2d(72, 72, kernel_size=(3, 3), stride=(1, 1), padding=(1, 1), bias=False)
                (bn1): FrozenBatchNorm2d(num_features=72, eps=1e-05)
                (relu): ReLU(inplace=True)
                (conv2): Conv2d(72, 72, kernel_size=(3, 3), stride=(1, 1), padding=(1, 1), bias=False)
                (bn2): FrozenBatchNorm2d(num_features=72, eps=1e-05)
              )
              (1): BasicBlock(
                (conv1): Conv2d(72, 72, kernel_size=(3, 3), stride=(1, 1), padding=(1, 1), bias=False)
                (bn1): FrozenBatchNorm2d(num_features=72, eps=1e-05)
                (relu): ReLU(inplace=True)
                (conv2): Conv2d(72, 72, kernel_size=(3, 3), stride=(1, 1), padding=(1, 1), bias=False)
                (bn2): FrozenBatchNorm2d(num_features=72, eps=1e-05)
              )
              (2): BasicBlock(
                (conv1): Conv2d(72, 72, kernel_size=(3, 3), stride=(1, 1), padding=(1, 1), bias=False)
                (bn1): FrozenBatchNorm2d(num_features=72, eps=1e-05)
                (relu): ReLU(inplace=True)
                (conv2): Conv2d(72, 72, kernel_size=(3, 3), stride=(1, 1), padding=(1, 1), bias=False)
                (bn2): FrozenBatchNorm2d(num_features=72, eps=1e-05)
              )
              (3): BasicBlock(
                (conv1): Conv2d(72, 72, kernel_size=(3, 3), stride=(1, 1), padding=(1, 1), bias=False)
                (bn1): FrozenBatchNorm2d(num_features=72, eps=1e-05)
                (relu): ReLU(inplace=True)
                (conv2): Conv2d(72, 72, kernel_size=(3, 3), stride=(1, 1), padding=(1, 1), bias=False)
                (bn2): FrozenBatchNorm2d(num_features=72, eps=1e-05)
              )
            )
          )
          (fuse_layers): ModuleList(
            (0): ModuleList(
              (0): None
              (1): Sequential(
                (0): Conv2d(36, 18, kernel_size=(1, 1), stride=(1, 1), bias=False)
                (1): FrozenBatchNorm2d(num_features=18, eps=1e-05)
                (2): Upsample(scale_factor=2.0, mode=nearest)
              )
              (2): Sequential(
                (0): Conv2d(72, 18, kernel_size=(1, 1), stride=(1, 1), bias=False)
                (1): FrozenBatchNorm2d(num_features=18, eps=1e-05)
                (2): Upsample(scale_factor=4.0, mode=nearest)
              )
            )
            (1): ModuleList(
              (0): Sequential(
                (0): Sequential(
                  (0): Conv2d(18, 36, kernel_size=(3, 3), stride=(2, 2), padding=(1, 1), bias=False)
                  (1): FrozenBatchNorm2d(num_features=36, eps=1e-05)
                )
              )
              (1): None
              (2): Sequential(
                (0): Conv2d(72, 36, kernel_size=(1, 1), stride=(1, 1), bias=False)
                (1): FrozenBatchNorm2d(num_features=36, eps=1e-05)
                (2): Upsample(scale_factor=2.0, mode=nearest)
              )
            )
            (2): ModuleList(
              (0): Sequential(
                (0): Sequential(
                  (0): Conv2d(18, 18, kernel_size=(3, 3), stride=(2, 2), padding=(1, 1), bias=False)
                  (1): FrozenBatchNorm2d(num_features=18, eps=1e-05)
                  (2): ReLU(inplace=True)
                )
                (1): Sequential(
                  (0): Conv2d(18, 72, kernel_size=(3, 3), stride=(2, 2), padding=(1, 1), bias=False)
                  (1): FrozenBatchNorm2d(num_features=72, eps=1e-05)
                )
              )
              (1): Sequential(
                (0): Sequential(
                  (0): Conv2d(36, 72, kernel_size=(3, 3), stride=(2, 2), padding=(1, 1), bias=False)
                  (1): FrozenBatchNorm2d(num_features=72, eps=1e-05)
                )
              )
              (2): None
            )
          )
          (relu): ReLU(inplace=True)
        )
        (2): HighResolutionModule(
          (branches): ModuleList(
            (0): Sequential(
              (0): BasicBlock(
                (conv1): Conv2d(18, 18, kernel_size=(3, 3), stride=(1, 1), padding=(1, 1), bias=False)
                (bn1): FrozenBatchNorm2d(num_features=18, eps=1e-05)
                (relu): ReLU(inplace=True)
                (conv2): Conv2d(18, 18, kernel_size=(3, 3), stride=(1, 1), padding=(1, 1), bias=False)
                (bn2): FrozenBatchNorm2d(num_features=18, eps=1e-05)
              )
              (1): BasicBlock(
                (conv1): Conv2d(18, 18, kernel_size=(3, 3), stride=(1, 1), padding=(1, 1), bias=False)
                (bn1): FrozenBatchNorm2d(num_features=18, eps=1e-05)
                (relu): ReLU(inplace=True)
                (conv2): Conv2d(18, 18, kernel_size=(3, 3), stride=(1, 1), padding=(1, 1), bias=False)
                (bn2): FrozenBatchNorm2d(num_features=18, eps=1e-05)
              )
              (2): BasicBlock(
                (conv1): Conv2d(18, 18, kernel_size=(3, 3), stride=(1, 1), padding=(1, 1), bias=False)
                (bn1): FrozenBatchNorm2d(num_features=18, eps=1e-05)
                (relu): ReLU(inplace=True)
                (conv2): Conv2d(18, 18, kernel_size=(3, 3), stride=(1, 1), padding=(1, 1), bias=False)
                (bn2): FrozenBatchNorm2d(num_features=18, eps=1e-05)
              )
              (3): BasicBlock(
                (conv1): Conv2d(18, 18, kernel_size=(3, 3), stride=(1, 1), padding=(1, 1), bias=False)
                (bn1): FrozenBatchNorm2d(num_features=18, eps=1e-05)
                (relu): ReLU(inplace=True)
                (conv2): Conv2d(18, 18, kernel_size=(3, 3), stride=(1, 1), padding=(1, 1), bias=False)
                (bn2): FrozenBatchNorm2d(num_features=18, eps=1e-05)
              )
            )
            (1): Sequential(
              (0): BasicBlock(
                (conv1): Conv2d(36, 36, kernel_size=(3, 3), stride=(1, 1), padding=(1, 1), bias=False)
                (bn1): FrozenBatchNorm2d(num_features=36, eps=1e-05)
                (relu): ReLU(inplace=True)
                (conv2): Conv2d(36, 36, kernel_size=(3, 3), stride=(1, 1), padding=(1, 1), bias=False)
                (bn2): FrozenBatchNorm2d(num_features=36, eps=1e-05)
              )
              (1): BasicBlock(
                (conv1): Conv2d(36, 36, kernel_size=(3, 3), stride=(1, 1), padding=(1, 1), bias=False)
                (bn1): FrozenBatchNorm2d(num_features=36, eps=1e-05)
                (relu): ReLU(inplace=True)
                (conv2): Conv2d(36, 36, kernel_size=(3, 3), stride=(1, 1), padding=(1, 1), bias=False)
                (bn2): FrozenBatchNorm2d(num_features=36, eps=1e-05)
              )
              (2): BasicBlock(
                (conv1): Conv2d(36, 36, kernel_size=(3, 3), stride=(1, 1), padding=(1, 1), bias=False)
                (bn1): FrozenBatchNorm2d(num_features=36, eps=1e-05)
                (relu): ReLU(inplace=True)
                (conv2): Conv2d(36, 36, kernel_size=(3, 3), stride=(1, 1), padding=(1, 1), bias=False)
                (bn2): FrozenBatchNorm2d(num_features=36, eps=1e-05)
              )
              (3): BasicBlock(
                (conv1): Conv2d(36, 36, kernel_size=(3, 3), stride=(1, 1), padding=(1, 1), bias=False)
                (bn1): FrozenBatchNorm2d(num_features=36, eps=1e-05)
                (relu): ReLU(inplace=True)
                (conv2): Conv2d(36, 36, kernel_size=(3, 3), stride=(1, 1), padding=(1, 1), bias=False)
                (bn2): FrozenBatchNorm2d(num_features=36, eps=1e-05)
              )
            )
            (2): Sequential(
              (0): BasicBlock(
                (conv1): Conv2d(72, 72, kernel_size=(3, 3), stride=(1, 1), padding=(1, 1), bias=False)
                (bn1): FrozenBatchNorm2d(num_features=72, eps=1e-05)
                (relu): ReLU(inplace=True)
                (conv2): Conv2d(72, 72, kernel_size=(3, 3), stride=(1, 1), padding=(1, 1), bias=False)
                (bn2): FrozenBatchNorm2d(num_features=72, eps=1e-05)
              )
              (1): BasicBlock(
                (conv1): Conv2d(72, 72, kernel_size=(3, 3), stride=(1, 1), padding=(1, 1), bias=False)
                (bn1): FrozenBatchNorm2d(num_features=72, eps=1e-05)
                (relu): ReLU(inplace=True)
                (conv2): Conv2d(72, 72, kernel_size=(3, 3), stride=(1, 1), padding=(1, 1), bias=False)
                (bn2): FrozenBatchNorm2d(num_features=72, eps=1e-05)
              )
              (2): BasicBlock(
                (conv1): Conv2d(72, 72, kernel_size=(3, 3), stride=(1, 1), padding=(1, 1), bias=False)
                (bn1): FrozenBatchNorm2d(num_features=72, eps=1e-05)
                (relu): ReLU(inplace=True)
                (conv2): Conv2d(72, 72, kernel_size=(3, 3), stride=(1, 1), padding=(1, 1), bias=False)
                (bn2): FrozenBatchNorm2d(num_features=72, eps=1e-05)
              )
              (3): BasicBlock(
                (conv1): Conv2d(72, 72, kernel_size=(3, 3), stride=(1, 1), padding=(1, 1), bias=False)
                (bn1): FrozenBatchNorm2d(num_features=72, eps=1e-05)
                (relu): ReLU(inplace=True)
                (conv2): Conv2d(72, 72, kernel_size=(3, 3), stride=(1, 1), padding=(1, 1), bias=False)
                (bn2): FrozenBatchNorm2d(num_features=72, eps=1e-05)
              )
            )
          )
          (fuse_layers): ModuleList(
            (0): ModuleList(
              (0): None
              (1): Sequential(
                (0): Conv2d(36, 18, kernel_size=(1, 1), stride=(1, 1), bias=False)
                (1): FrozenBatchNorm2d(num_features=18, eps=1e-05)
                (2): Upsample(scale_factor=2.0, mode=nearest)
              )
              (2): Sequential(
                (0): Conv2d(72, 18, kernel_size=(1, 1), stride=(1, 1), bias=False)
                (1): FrozenBatchNorm2d(num_features=18, eps=1e-05)
                (2): Upsample(scale_factor=4.0, mode=nearest)
              )
            )
            (1): ModuleList(
              (0): Sequential(
                (0): Sequential(
                  (0): Conv2d(18, 36, kernel_size=(3, 3), stride=(2, 2), padding=(1, 1), bias=False)
                  (1): FrozenBatchNorm2d(num_features=36, eps=1e-05)
                )
              )
              (1): None
              (2): Sequential(
                (0): Conv2d(72, 36, kernel_size=(1, 1), stride=(1, 1), bias=False)
                (1): FrozenBatchNorm2d(num_features=36, eps=1e-05)
                (2): Upsample(scale_factor=2.0, mode=nearest)
              )
            )
            (2): ModuleList(
              (0): Sequential(
                (0): Sequential(
                  (0): Conv2d(18, 18, kernel_size=(3, 3), stride=(2, 2), padding=(1, 1), bias=False)
                  (1): FrozenBatchNorm2d(num_features=18, eps=1e-05)
                  (2): ReLU(inplace=True)
                )
                (1): Sequential(
                  (0): Conv2d(18, 72, kernel_size=(3, 3), stride=(2, 2), padding=(1, 1), bias=False)
                  (1): FrozenBatchNorm2d(num_features=72, eps=1e-05)
                )
              )
              (1): Sequential(
                (0): Sequential(
                  (0): Conv2d(36, 72, kernel_size=(3, 3), stride=(2, 2), padding=(1, 1), bias=False)
                  (1): FrozenBatchNorm2d(num_features=72, eps=1e-05)
                )
              )
              (2): None
            )
          )
          (relu): ReLU(inplace=True)
        )
        (3): HighResolutionModule(
          (branches): ModuleList(
            (0): Sequential(
              (0): BasicBlock(
                (conv1): Conv2d(18, 18, kernel_size=(3, 3), stride=(1, 1), padding=(1, 1), bias=False)
                (bn1): FrozenBatchNorm2d(num_features=18, eps=1e-05)
                (relu): ReLU(inplace=True)
                (conv2): Conv2d(18, 18, kernel_size=(3, 3), stride=(1, 1), padding=(1, 1), bias=False)
                (bn2): FrozenBatchNorm2d(num_features=18, eps=1e-05)
              )
              (1): BasicBlock(
                (conv1): Conv2d(18, 18, kernel_size=(3, 3), stride=(1, 1), padding=(1, 1), bias=False)
                (bn1): FrozenBatchNorm2d(num_features=18, eps=1e-05)
                (relu): ReLU(inplace=True)
                (conv2): Conv2d(18, 18, kernel_size=(3, 3), stride=(1, 1), padding=(1, 1), bias=False)
                (bn2): FrozenBatchNorm2d(num_features=18, eps=1e-05)
              )
              (2): BasicBlock(
                (conv1): Conv2d(18, 18, kernel_size=(3, 3), stride=(1, 1), padding=(1, 1), bias=False)
                (bn1): FrozenBatchNorm2d(num_features=18, eps=1e-05)
                (relu): ReLU(inplace=True)
                (conv2): Conv2d(18, 18, kernel_size=(3, 3), stride=(1, 1), padding=(1, 1), bias=False)
                (bn2): FrozenBatchNorm2d(num_features=18, eps=1e-05)
              )
              (3): BasicBlock(
                (conv1): Conv2d(18, 18, kernel_size=(3, 3), stride=(1, 1), padding=(1, 1), bias=False)
                (bn1): FrozenBatchNorm2d(num_features=18, eps=1e-05)
                (relu): ReLU(inplace=True)
                (conv2): Conv2d(18, 18, kernel_size=(3, 3), stride=(1, 1), padding=(1, 1), bias=False)
                (bn2): FrozenBatchNorm2d(num_features=18, eps=1e-05)
              )
            )
            (1): Sequential(
              (0): BasicBlock(
                (conv1): Conv2d(36, 36, kernel_size=(3, 3), stride=(1, 1), padding=(1, 1), bias=False)
                (bn1): FrozenBatchNorm2d(num_features=36, eps=1e-05)
                (relu): ReLU(inplace=True)
                (conv2): Conv2d(36, 36, kernel_size=(3, 3), stride=(1, 1), padding=(1, 1), bias=False)
                (bn2): FrozenBatchNorm2d(num_features=36, eps=1e-05)
              )
              (1): BasicBlock(
                (conv1): Conv2d(36, 36, kernel_size=(3, 3), stride=(1, 1), padding=(1, 1), bias=False)
                (bn1): FrozenBatchNorm2d(num_features=36, eps=1e-05)
                (relu): ReLU(inplace=True)
                (conv2): Conv2d(36, 36, kernel_size=(3, 3), stride=(1, 1), padding=(1, 1), bias=False)
                (bn2): FrozenBatchNorm2d(num_features=36, eps=1e-05)
              )
              (2): BasicBlock(
                (conv1): Conv2d(36, 36, kernel_size=(3, 3), stride=(1, 1), padding=(1, 1), bias=False)
                (bn1): FrozenBatchNorm2d(num_features=36, eps=1e-05)
                (relu): ReLU(inplace=True)
                (conv2): Conv2d(36, 36, kernel_size=(3, 3), stride=(1, 1), padding=(1, 1), bias=False)
                (bn2): FrozenBatchNorm2d(num_features=36, eps=1e-05)
              )
              (3): BasicBlock(
                (conv1): Conv2d(36, 36, kernel_size=(3, 3), stride=(1, 1), padding=(1, 1), bias=False)
                (bn1): FrozenBatchNorm2d(num_features=36, eps=1e-05)
                (relu): ReLU(inplace=True)
                (conv2): Conv2d(36, 36, kernel_size=(3, 3), stride=(1, 1), padding=(1, 1), bias=False)
                (bn2): FrozenBatchNorm2d(num_features=36, eps=1e-05)
              )
            )
            (2): Sequential(
              (0): BasicBlock(
                (conv1): Conv2d(72, 72, kernel_size=(3, 3), stride=(1, 1), padding=(1, 1), bias=False)
                (bn1): FrozenBatchNorm2d(num_features=72, eps=1e-05)
                (relu): ReLU(inplace=True)
                (conv2): Conv2d(72, 72, kernel_size=(3, 3), stride=(1, 1), padding=(1, 1), bias=False)
                (bn2): FrozenBatchNorm2d(num_features=72, eps=1e-05)
              )
              (1): BasicBlock(
                (conv1): Conv2d(72, 72, kernel_size=(3, 3), stride=(1, 1), padding=(1, 1), bias=False)
                (bn1): FrozenBatchNorm2d(num_features=72, eps=1e-05)
                (relu): ReLU(inplace=True)
                (conv2): Conv2d(72, 72, kernel_size=(3, 3), stride=(1, 1), padding=(1, 1), bias=False)
                (bn2): FrozenBatchNorm2d(num_features=72, eps=1e-05)
              )
              (2): BasicBlock(
                (conv1): Conv2d(72, 72, kernel_size=(3, 3), stride=(1, 1), padding=(1, 1), bias=False)
                (bn1): FrozenBatchNorm2d(num_features=72, eps=1e-05)
                (relu): ReLU(inplace=True)
                (conv2): Conv2d(72, 72, kernel_size=(3, 3), stride=(1, 1), padding=(1, 1), bias=False)
                (bn2): FrozenBatchNorm2d(num_features=72, eps=1e-05)
              )
              (3): BasicBlock(
                (conv1): Conv2d(72, 72, kernel_size=(3, 3), stride=(1, 1), padding=(1, 1), bias=False)
                (bn1): FrozenBatchNorm2d(num_features=72, eps=1e-05)
                (relu): ReLU(inplace=True)
                (conv2): Conv2d(72, 72, kernel_size=(3, 3), stride=(1, 1), padding=(1, 1), bias=False)
                (bn2): FrozenBatchNorm2d(num_features=72, eps=1e-05)
              )
            )
          )
          (fuse_layers): ModuleList(
            (0): ModuleList(
              (0): None
              (1): Sequential(
                (0): Conv2d(36, 18, kernel_size=(1, 1), stride=(1, 1), bias=False)
                (1): FrozenBatchNorm2d(num_features=18, eps=1e-05)
                (2): Upsample(scale_factor=2.0, mode=nearest)
              )
              (2): Sequential(
                (0): Conv2d(72, 18, kernel_size=(1, 1), stride=(1, 1), bias=False)
                (1): FrozenBatchNorm2d(num_features=18, eps=1e-05)
                (2): Upsample(scale_factor=4.0, mode=nearest)
              )
            )
            (1): ModuleList(
              (0): Sequential(
                (0): Sequential(
                  (0): Conv2d(18, 36, kernel_size=(3, 3), stride=(2, 2), padding=(1, 1), bias=False)
                  (1): FrozenBatchNorm2d(num_features=36, eps=1e-05)
                )
              )
              (1): None
              (2): Sequential(
                (0): Conv2d(72, 36, kernel_size=(1, 1), stride=(1, 1), bias=False)
                (1): FrozenBatchNorm2d(num_features=36, eps=1e-05)
                (2): Upsample(scale_factor=2.0, mode=nearest)
              )
            )
            (2): ModuleList(
              (0): Sequential(
                (0): Sequential(
                  (0): Conv2d(18, 18, kernel_size=(3, 3), stride=(2, 2), padding=(1, 1), bias=False)
                  (1): FrozenBatchNorm2d(num_features=18, eps=1e-05)
                  (2): ReLU(inplace=True)
                )
                (1): Sequential(
                  (0): Conv2d(18, 72, kernel_size=(3, 3), stride=(2, 2), padding=(1, 1), bias=False)
                  (1): FrozenBatchNorm2d(num_features=72, eps=1e-05)
                )
              )
              (1): Sequential(
                (0): Sequential(
                  (0): Conv2d(36, 72, kernel_size=(3, 3), stride=(2, 2), padding=(1, 1), bias=False)
                  (1): FrozenBatchNorm2d(num_features=72, eps=1e-05)
                )
              )
              (2): None
            )
          )
          (relu): ReLU(inplace=True)
        )
      )
      (transition3): ModuleList(
        (0): None
        (1): None
        (2): None
        (3): Sequential(
          (0): Sequential(
            (0): Conv2d(72, 144, kernel_size=(3, 3), stride=(2, 2), padding=(1, 1), bias=False)
            (1): FrozenBatchNorm2d(num_features=144, eps=1e-05)
            (2): ReLU(inplace=True)
          )
        )
      )
      (stage4): Sequential(
        (0): HighResolutionModule(
          (branches): ModuleList(
            (0): Sequential(
              (0): BasicBlock(
                (conv1): Conv2d(18, 18, kernel_size=(3, 3), stride=(1, 1), padding=(1, 1), bias=False)
                (bn1): FrozenBatchNorm2d(num_features=18, eps=1e-05)
                (relu): ReLU(inplace=True)
                (conv2): Conv2d(18, 18, kernel_size=(3, 3), stride=(1, 1), padding=(1, 1), bias=False)
                (bn2): FrozenBatchNorm2d(num_features=18, eps=1e-05)
              )
              (1): BasicBlock(
                (conv1): Conv2d(18, 18, kernel_size=(3, 3), stride=(1, 1), padding=(1, 1), bias=False)
                (bn1): FrozenBatchNorm2d(num_features=18, eps=1e-05)
                (relu): ReLU(inplace=True)
                (conv2): Conv2d(18, 18, kernel_size=(3, 3), stride=(1, 1), padding=(1, 1), bias=False)
                (bn2): FrozenBatchNorm2d(num_features=18, eps=1e-05)
              )
              (2): BasicBlock(
                (conv1): Conv2d(18, 18, kernel_size=(3, 3), stride=(1, 1), padding=(1, 1), bias=False)
                (bn1): FrozenBatchNorm2d(num_features=18, eps=1e-05)
                (relu): ReLU(inplace=True)
                (conv2): Conv2d(18, 18, kernel_size=(3, 3), stride=(1, 1), padding=(1, 1), bias=False)
                (bn2): FrozenBatchNorm2d(num_features=18, eps=1e-05)
              )
              (3): BasicBlock(
                (conv1): Conv2d(18, 18, kernel_size=(3, 3), stride=(1, 1), padding=(1, 1), bias=False)
                (bn1): FrozenBatchNorm2d(num_features=18, eps=1e-05)
                (relu): ReLU(inplace=True)
                (conv2): Conv2d(18, 18, kernel_size=(3, 3), stride=(1, 1), padding=(1, 1), bias=False)
                (bn2): FrozenBatchNorm2d(num_features=18, eps=1e-05)
              )
            )
            (1): Sequential(
              (0): BasicBlock(
                (conv1): Conv2d(36, 36, kernel_size=(3, 3), stride=(1, 1), padding=(1, 1), bias=False)
                (bn1): FrozenBatchNorm2d(num_features=36, eps=1e-05)
                (relu): ReLU(inplace=True)
                (conv2): Conv2d(36, 36, kernel_size=(3, 3), stride=(1, 1), padding=(1, 1), bias=False)
                (bn2): FrozenBatchNorm2d(num_features=36, eps=1e-05)
              )
              (1): BasicBlock(
                (conv1): Conv2d(36, 36, kernel_size=(3, 3), stride=(1, 1), padding=(1, 1), bias=False)
                (bn1): FrozenBatchNorm2d(num_features=36, eps=1e-05)
                (relu): ReLU(inplace=True)
                (conv2): Conv2d(36, 36, kernel_size=(3, 3), stride=(1, 1), padding=(1, 1), bias=False)
                (bn2): FrozenBatchNorm2d(num_features=36, eps=1e-05)
              )
              (2): BasicBlock(
                (conv1): Conv2d(36, 36, kernel_size=(3, 3), stride=(1, 1), padding=(1, 1), bias=False)
                (bn1): FrozenBatchNorm2d(num_features=36, eps=1e-05)
                (relu): ReLU(inplace=True)
                (conv2): Conv2d(36, 36, kernel_size=(3, 3), stride=(1, 1), padding=(1, 1), bias=False)
                (bn2): FrozenBatchNorm2d(num_features=36, eps=1e-05)
              )
              (3): BasicBlock(
                (conv1): Conv2d(36, 36, kernel_size=(3, 3), stride=(1, 1), padding=(1, 1), bias=False)
                (bn1): FrozenBatchNorm2d(num_features=36, eps=1e-05)
                (relu): ReLU(inplace=True)
                (conv2): Conv2d(36, 36, kernel_size=(3, 3), stride=(1, 1), padding=(1, 1), bias=False)
                (bn2): FrozenBatchNorm2d(num_features=36, eps=1e-05)
              )
            )
            (2): Sequential(
              (0): BasicBlock(
                (conv1): Conv2d(72, 72, kernel_size=(3, 3), stride=(1, 1), padding=(1, 1), bias=False)
                (bn1): FrozenBatchNorm2d(num_features=72, eps=1e-05)
                (relu): ReLU(inplace=True)
                (conv2): Conv2d(72, 72, kernel_size=(3, 3), stride=(1, 1), padding=(1, 1), bias=False)
                (bn2): FrozenBatchNorm2d(num_features=72, eps=1e-05)
              )
              (1): BasicBlock(
                (conv1): Conv2d(72, 72, kernel_size=(3, 3), stride=(1, 1), padding=(1, 1), bias=False)
                (bn1): FrozenBatchNorm2d(num_features=72, eps=1e-05)
                (relu): ReLU(inplace=True)
                (conv2): Conv2d(72, 72, kernel_size=(3, 3), stride=(1, 1), padding=(1, 1), bias=False)
                (bn2): FrozenBatchNorm2d(num_features=72, eps=1e-05)
              )
              (2): BasicBlock(
                (conv1): Conv2d(72, 72, kernel_size=(3, 3), stride=(1, 1), padding=(1, 1), bias=False)
                (bn1): FrozenBatchNorm2d(num_features=72, eps=1e-05)
                (relu): ReLU(inplace=True)
                (conv2): Conv2d(72, 72, kernel_size=(3, 3), stride=(1, 1), padding=(1, 1), bias=False)
                (bn2): FrozenBatchNorm2d(num_features=72, eps=1e-05)
              )
              (3): BasicBlock(
                (conv1): Conv2d(72, 72, kernel_size=(3, 3), stride=(1, 1), padding=(1, 1), bias=False)
                (bn1): FrozenBatchNorm2d(num_features=72, eps=1e-05)
                (relu): ReLU(inplace=True)
                (conv2): Conv2d(72, 72, kernel_size=(3, 3), stride=(1, 1), padding=(1, 1), bias=False)
                (bn2): FrozenBatchNorm2d(num_features=72, eps=1e-05)
              )
            )
            (3): Sequential(
              (0): BasicBlock(
                (conv1): Conv2d(144, 144, kernel_size=(3, 3), stride=(1, 1), padding=(1, 1), bias=False)
                (bn1): FrozenBatchNorm2d(num_features=144, eps=1e-05)
                (relu): ReLU(inplace=True)
                (conv2): Conv2d(144, 144, kernel_size=(3, 3), stride=(1, 1), padding=(1, 1), bias=False)
                (bn2): FrozenBatchNorm2d(num_features=144, eps=1e-05)
              )
              (1): BasicBlock(
                (conv1): Conv2d(144, 144, kernel_size=(3, 3), stride=(1, 1), padding=(1, 1), bias=False)
                (bn1): FrozenBatchNorm2d(num_features=144, eps=1e-05)
                (relu): ReLU(inplace=True)
                (conv2): Conv2d(144, 144, kernel_size=(3, 3), stride=(1, 1), padding=(1, 1), bias=False)
                (bn2): FrozenBatchNorm2d(num_features=144, eps=1e-05)
              )
              (2): BasicBlock(
                (conv1): Conv2d(144, 144, kernel_size=(3, 3), stride=(1, 1), padding=(1, 1), bias=False)
                (bn1): FrozenBatchNorm2d(num_features=144, eps=1e-05)
                (relu): ReLU(inplace=True)
                (conv2): Conv2d(144, 144, kernel_size=(3, 3), stride=(1, 1), padding=(1, 1), bias=False)
                (bn2): FrozenBatchNorm2d(num_features=144, eps=1e-05)
              )
              (3): BasicBlock(
                (conv1): Conv2d(144, 144, kernel_size=(3, 3), stride=(1, 1), padding=(1, 1), bias=False)
                (bn1): FrozenBatchNorm2d(num_features=144, eps=1e-05)
                (relu): ReLU(inplace=True)
                (conv2): Conv2d(144, 144, kernel_size=(3, 3), stride=(1, 1), padding=(1, 1), bias=False)
                (bn2): FrozenBatchNorm2d(num_features=144, eps=1e-05)
              )
            )
          )
          (fuse_layers): ModuleList(
            (0): ModuleList(
              (0): None
              (1): Sequential(
                (0): Conv2d(36, 18, kernel_size=(1, 1), stride=(1, 1), bias=False)
                (1): FrozenBatchNorm2d(num_features=18, eps=1e-05)
                (2): Upsample(scale_factor=2.0, mode=nearest)
              )
              (2): Sequential(
                (0): Conv2d(72, 18, kernel_size=(1, 1), stride=(1, 1), bias=False)
                (1): FrozenBatchNorm2d(num_features=18, eps=1e-05)
                (2): Upsample(scale_factor=4.0, mode=nearest)
              )
              (3): Sequential(
                (0): Conv2d(144, 18, kernel_size=(1, 1), stride=(1, 1), bias=False)
                (1): FrozenBatchNorm2d(num_features=18, eps=1e-05)
                (2): Upsample(scale_factor=8.0, mode=nearest)
              )
            )
            (1): ModuleList(
              (0): Sequential(
                (0): Sequential(
                  (0): Conv2d(18, 36, kernel_size=(3, 3), stride=(2, 2), padding=(1, 1), bias=False)
                  (1): FrozenBatchNorm2d(num_features=36, eps=1e-05)
                )
              )
              (1): None
              (2): Sequential(
                (0): Conv2d(72, 36, kernel_size=(1, 1), stride=(1, 1), bias=False)
                (1): FrozenBatchNorm2d(num_features=36, eps=1e-05)
                (2): Upsample(scale_factor=2.0, mode=nearest)
              )
              (3): Sequential(
                (0): Conv2d(144, 36, kernel_size=(1, 1), stride=(1, 1), bias=False)
                (1): FrozenBatchNorm2d(num_features=36, eps=1e-05)
                (2): Upsample(scale_factor=4.0, mode=nearest)
              )
            )
            (2): ModuleList(
              (0): Sequential(
                (0): Sequential(
                  (0): Conv2d(18, 18, kernel_size=(3, 3), stride=(2, 2), padding=(1, 1), bias=False)
                  (1): FrozenBatchNorm2d(num_features=18, eps=1e-05)
                  (2): ReLU(inplace=True)
                )
                (1): Sequential(
                  (0): Conv2d(18, 72, kernel_size=(3, 3), stride=(2, 2), padding=(1, 1), bias=False)
                  (1): FrozenBatchNorm2d(num_features=72, eps=1e-05)
                )
              )
              (1): Sequential(
                (0): Sequential(
                  (0): Conv2d(36, 72, kernel_size=(3, 3), stride=(2, 2), padding=(1, 1), bias=False)
                  (1): FrozenBatchNorm2d(num_features=72, eps=1e-05)
                )
              )
              (2): None
              (3): Sequential(
                (0): Conv2d(144, 72, kernel_size=(1, 1), stride=(1, 1), bias=False)
                (1): FrozenBatchNorm2d(num_features=72, eps=1e-05)
                (2): Upsample(scale_factor=2.0, mode=nearest)
              )
            )
            (3): ModuleList(
              (0): Sequential(
                (0): Sequential(
                  (0): Conv2d(18, 18, kernel_size=(3, 3), stride=(2, 2), padding=(1, 1), bias=False)
                  (1): FrozenBatchNorm2d(num_features=18, eps=1e-05)
                  (2): ReLU(inplace=True)
                )
                (1): Sequential(
                  (0): Conv2d(18, 18, kernel_size=(3, 3), stride=(2, 2), padding=(1, 1), bias=False)
                  (1): FrozenBatchNorm2d(num_features=18, eps=1e-05)
                  (2): ReLU(inplace=True)
                )
                (2): Sequential(
                  (0): Conv2d(18, 144, kernel_size=(3, 3), stride=(2, 2), padding=(1, 1), bias=False)
                  (1): FrozenBatchNorm2d(num_features=144, eps=1e-05)
                )
              )
              (1): Sequential(
                (0): Sequential(
                  (0): Conv2d(36, 36, kernel_size=(3, 3), stride=(2, 2), padding=(1, 1), bias=False)
                  (1): FrozenBatchNorm2d(num_features=36, eps=1e-05)
                  (2): ReLU(inplace=True)
                )
                (1): Sequential(
                  (0): Conv2d(36, 144, kernel_size=(3, 3), stride=(2, 2), padding=(1, 1), bias=False)
                  (1): FrozenBatchNorm2d(num_features=144, eps=1e-05)
                )
              )
              (2): Sequential(
                (0): Sequential(
                  (0): Conv2d(72, 144, kernel_size=(3, 3), stride=(2, 2), padding=(1, 1), bias=False)
                  (1): FrozenBatchNorm2d(num_features=144, eps=1e-05)
                )
              )
              (3): None
            )
          )
          (relu): ReLU(inplace=True)
        )
        (1): HighResolutionModule(
          (branches): ModuleList(
            (0): Sequential(
              (0): BasicBlock(
                (conv1): Conv2d(18, 18, kernel_size=(3, 3), stride=(1, 1), padding=(1, 1), bias=False)
                (bn1): FrozenBatchNorm2d(num_features=18, eps=1e-05)
                (relu): ReLU(inplace=True)
                (conv2): Conv2d(18, 18, kernel_size=(3, 3), stride=(1, 1), padding=(1, 1), bias=False)
                (bn2): FrozenBatchNorm2d(num_features=18, eps=1e-05)
              )
              (1): BasicBlock(
                (conv1): Conv2d(18, 18, kernel_size=(3, 3), stride=(1, 1), padding=(1, 1), bias=False)
                (bn1): FrozenBatchNorm2d(num_features=18, eps=1e-05)
                (relu): ReLU(inplace=True)
                (conv2): Conv2d(18, 18, kernel_size=(3, 3), stride=(1, 1), padding=(1, 1), bias=False)
                (bn2): FrozenBatchNorm2d(num_features=18, eps=1e-05)
              )
              (2): BasicBlock(
                (conv1): Conv2d(18, 18, kernel_size=(3, 3), stride=(1, 1), padding=(1, 1), bias=False)
                (bn1): FrozenBatchNorm2d(num_features=18, eps=1e-05)
                (relu): ReLU(inplace=True)
                (conv2): Conv2d(18, 18, kernel_size=(3, 3), stride=(1, 1), padding=(1, 1), bias=False)
                (bn2): FrozenBatchNorm2d(num_features=18, eps=1e-05)
              )
              (3): BasicBlock(
                (conv1): Conv2d(18, 18, kernel_size=(3, 3), stride=(1, 1), padding=(1, 1), bias=False)
                (bn1): FrozenBatchNorm2d(num_features=18, eps=1e-05)
                (relu): ReLU(inplace=True)
                (conv2): Conv2d(18, 18, kernel_size=(3, 3), stride=(1, 1), padding=(1, 1), bias=False)
                (bn2): FrozenBatchNorm2d(num_features=18, eps=1e-05)
              )
            )
            (1): Sequential(
              (0): BasicBlock(
                (conv1): Conv2d(36, 36, kernel_size=(3, 3), stride=(1, 1), padding=(1, 1), bias=False)
                (bn1): FrozenBatchNorm2d(num_features=36, eps=1e-05)
                (relu): ReLU(inplace=True)
                (conv2): Conv2d(36, 36, kernel_size=(3, 3), stride=(1, 1), padding=(1, 1), bias=False)
                (bn2): FrozenBatchNorm2d(num_features=36, eps=1e-05)
              )
              (1): BasicBlock(
                (conv1): Conv2d(36, 36, kernel_size=(3, 3), stride=(1, 1), padding=(1, 1), bias=False)
                (bn1): FrozenBatchNorm2d(num_features=36, eps=1e-05)
                (relu): ReLU(inplace=True)
                (conv2): Conv2d(36, 36, kernel_size=(3, 3), stride=(1, 1), padding=(1, 1), bias=False)
                (bn2): FrozenBatchNorm2d(num_features=36, eps=1e-05)
              )
              (2): BasicBlock(
                (conv1): Conv2d(36, 36, kernel_size=(3, 3), stride=(1, 1), padding=(1, 1), bias=False)
                (bn1): FrozenBatchNorm2d(num_features=36, eps=1e-05)
                (relu): ReLU(inplace=True)
                (conv2): Conv2d(36, 36, kernel_size=(3, 3), stride=(1, 1), padding=(1, 1), bias=False)
                (bn2): FrozenBatchNorm2d(num_features=36, eps=1e-05)
              )
              (3): BasicBlock(
                (conv1): Conv2d(36, 36, kernel_size=(3, 3), stride=(1, 1), padding=(1, 1), bias=False)
                (bn1): FrozenBatchNorm2d(num_features=36, eps=1e-05)
                (relu): ReLU(inplace=True)
                (conv2): Conv2d(36, 36, kernel_size=(3, 3), stride=(1, 1), padding=(1, 1), bias=False)
                (bn2): FrozenBatchNorm2d(num_features=36, eps=1e-05)
              )
            )
            (2): Sequential(
              (0): BasicBlock(
                (conv1): Conv2d(72, 72, kernel_size=(3, 3), stride=(1, 1), padding=(1, 1), bias=False)
                (bn1): FrozenBatchNorm2d(num_features=72, eps=1e-05)
                (relu): ReLU(inplace=True)
                (conv2): Conv2d(72, 72, kernel_size=(3, 3), stride=(1, 1), padding=(1, 1), bias=False)
                (bn2): FrozenBatchNorm2d(num_features=72, eps=1e-05)
              )
              (1): BasicBlock(
                (conv1): Conv2d(72, 72, kernel_size=(3, 3), stride=(1, 1), padding=(1, 1), bias=False)
                (bn1): FrozenBatchNorm2d(num_features=72, eps=1e-05)
                (relu): ReLU(inplace=True)
                (conv2): Conv2d(72, 72, kernel_size=(3, 3), stride=(1, 1), padding=(1, 1), bias=False)
                (bn2): FrozenBatchNorm2d(num_features=72, eps=1e-05)
              )
              (2): BasicBlock(
                (conv1): Conv2d(72, 72, kernel_size=(3, 3), stride=(1, 1), padding=(1, 1), bias=False)
                (bn1): FrozenBatchNorm2d(num_features=72, eps=1e-05)
                (relu): ReLU(inplace=True)
                (conv2): Conv2d(72, 72, kernel_size=(3, 3), stride=(1, 1), padding=(1, 1), bias=False)
                (bn2): FrozenBatchNorm2d(num_features=72, eps=1e-05)
              )
              (3): BasicBlock(
                (conv1): Conv2d(72, 72, kernel_size=(3, 3), stride=(1, 1), padding=(1, 1), bias=False)
                (bn1): FrozenBatchNorm2d(num_features=72, eps=1e-05)
                (relu): ReLU(inplace=True)
                (conv2): Conv2d(72, 72, kernel_size=(3, 3), stride=(1, 1), padding=(1, 1), bias=False)
                (bn2): FrozenBatchNorm2d(num_features=72, eps=1e-05)
              )
            )
            (3): Sequential(
              (0): BasicBlock(
                (conv1): Conv2d(144, 144, kernel_size=(3, 3), stride=(1, 1), padding=(1, 1), bias=False)
                (bn1): FrozenBatchNorm2d(num_features=144, eps=1e-05)
                (relu): ReLU(inplace=True)
                (conv2): Conv2d(144, 144, kernel_size=(3, 3), stride=(1, 1), padding=(1, 1), bias=False)
                (bn2): FrozenBatchNorm2d(num_features=144, eps=1e-05)
              )
              (1): BasicBlock(
                (conv1): Conv2d(144, 144, kernel_size=(3, 3), stride=(1, 1), padding=(1, 1), bias=False)
                (bn1): FrozenBatchNorm2d(num_features=144, eps=1e-05)
                (relu): ReLU(inplace=True)
                (conv2): Conv2d(144, 144, kernel_size=(3, 3), stride=(1, 1), padding=(1, 1), bias=False)
                (bn2): FrozenBatchNorm2d(num_features=144, eps=1e-05)
              )
              (2): BasicBlock(
                (conv1): Conv2d(144, 144, kernel_size=(3, 3), stride=(1, 1), padding=(1, 1), bias=False)
                (bn1): FrozenBatchNorm2d(num_features=144, eps=1e-05)
                (relu): ReLU(inplace=True)
                (conv2): Conv2d(144, 144, kernel_size=(3, 3), stride=(1, 1), padding=(1, 1), bias=False)
                (bn2): FrozenBatchNorm2d(num_features=144, eps=1e-05)
              )
              (3): BasicBlock(
                (conv1): Conv2d(144, 144, kernel_size=(3, 3), stride=(1, 1), padding=(1, 1), bias=False)
                (bn1): FrozenBatchNorm2d(num_features=144, eps=1e-05)
                (relu): ReLU(inplace=True)
                (conv2): Conv2d(144, 144, kernel_size=(3, 3), stride=(1, 1), padding=(1, 1), bias=False)
                (bn2): FrozenBatchNorm2d(num_features=144, eps=1e-05)
              )
            )
          )
          (fuse_layers): ModuleList(
            (0): ModuleList(
              (0): None
              (1): Sequential(
                (0): Conv2d(36, 18, kernel_size=(1, 1), stride=(1, 1), bias=False)
                (1): FrozenBatchNorm2d(num_features=18, eps=1e-05)
                (2): Upsample(scale_factor=2.0, mode=nearest)
              )
              (2): Sequential(
                (0): Conv2d(72, 18, kernel_size=(1, 1), stride=(1, 1), bias=False)
                (1): FrozenBatchNorm2d(num_features=18, eps=1e-05)
                (2): Upsample(scale_factor=4.0, mode=nearest)
              )
              (3): Sequential(
                (0): Conv2d(144, 18, kernel_size=(1, 1), stride=(1, 1), bias=False)
                (1): FrozenBatchNorm2d(num_features=18, eps=1e-05)
                (2): Upsample(scale_factor=8.0, mode=nearest)
              )
            )
            (1): ModuleList(
              (0): Sequential(
                (0): Sequential(
                  (0): Conv2d(18, 36, kernel_size=(3, 3), stride=(2, 2), padding=(1, 1), bias=False)
                  (1): FrozenBatchNorm2d(num_features=36, eps=1e-05)
                )
              )
              (1): None
              (2): Sequential(
                (0): Conv2d(72, 36, kernel_size=(1, 1), stride=(1, 1), bias=False)
                (1): FrozenBatchNorm2d(num_features=36, eps=1e-05)
                (2): Upsample(scale_factor=2.0, mode=nearest)
              )
              (3): Sequential(
                (0): Conv2d(144, 36, kernel_size=(1, 1), stride=(1, 1), bias=False)
                (1): FrozenBatchNorm2d(num_features=36, eps=1e-05)
                (2): Upsample(scale_factor=4.0, mode=nearest)
              )
            )
            (2): ModuleList(
              (0): Sequential(
                (0): Sequential(
                  (0): Conv2d(18, 18, kernel_size=(3, 3), stride=(2, 2), padding=(1, 1), bias=False)
                  (1): FrozenBatchNorm2d(num_features=18, eps=1e-05)
                  (2): ReLU(inplace=True)
                )
                (1): Sequential(
                  (0): Conv2d(18, 72, kernel_size=(3, 3), stride=(2, 2), padding=(1, 1), bias=False)
                  (1): FrozenBatchNorm2d(num_features=72, eps=1e-05)
                )
              )
              (1): Sequential(
                (0): Sequential(
                  (0): Conv2d(36, 72, kernel_size=(3, 3), stride=(2, 2), padding=(1, 1), bias=False)
                  (1): FrozenBatchNorm2d(num_features=72, eps=1e-05)
                )
              )
              (2): None
              (3): Sequential(
                (0): Conv2d(144, 72, kernel_size=(1, 1), stride=(1, 1), bias=False)
                (1): FrozenBatchNorm2d(num_features=72, eps=1e-05)
                (2): Upsample(scale_factor=2.0, mode=nearest)
              )
            )
            (3): ModuleList(
              (0): Sequential(
                (0): Sequential(
                  (0): Conv2d(18, 18, kernel_size=(3, 3), stride=(2, 2), padding=(1, 1), bias=False)
                  (1): FrozenBatchNorm2d(num_features=18, eps=1e-05)
                  (2): ReLU(inplace=True)
                )
                (1): Sequential(
                  (0): Conv2d(18, 18, kernel_size=(3, 3), stride=(2, 2), padding=(1, 1), bias=False)
                  (1): FrozenBatchNorm2d(num_features=18, eps=1e-05)
                  (2): ReLU(inplace=True)
                )
                (2): Sequential(
                  (0): Conv2d(18, 144, kernel_size=(3, 3), stride=(2, 2), padding=(1, 1), bias=False)
                  (1): FrozenBatchNorm2d(num_features=144, eps=1e-05)
                )
              )
              (1): Sequential(
                (0): Sequential(
                  (0): Conv2d(36, 36, kernel_size=(3, 3), stride=(2, 2), padding=(1, 1), bias=False)
                  (1): FrozenBatchNorm2d(num_features=36, eps=1e-05)
                  (2): ReLU(inplace=True)
                )
                (1): Sequential(
                  (0): Conv2d(36, 144, kernel_size=(3, 3), stride=(2, 2), padding=(1, 1), bias=False)
                  (1): FrozenBatchNorm2d(num_features=144, eps=1e-05)
                )
              )
              (2): Sequential(
                (0): Sequential(
                  (0): Conv2d(72, 144, kernel_size=(3, 3), stride=(2, 2), padding=(1, 1), bias=False)
                  (1): FrozenBatchNorm2d(num_features=144, eps=1e-05)
                )
              )
              (3): None
            )
          )
          (relu): ReLU(inplace=True)
        )
        (2): HighResolutionModule(
          (branches): ModuleList(
            (0): Sequential(
              (0): BasicBlock(
                (conv1): Conv2d(18, 18, kernel_size=(3, 3), stride=(1, 1), padding=(1, 1), bias=False)
                (bn1): FrozenBatchNorm2d(num_features=18, eps=1e-05)
                (relu): ReLU(inplace=True)
                (conv2): Conv2d(18, 18, kernel_size=(3, 3), stride=(1, 1), padding=(1, 1), bias=False)
                (bn2): FrozenBatchNorm2d(num_features=18, eps=1e-05)
              )
              (1): BasicBlock(
                (conv1): Conv2d(18, 18, kernel_size=(3, 3), stride=(1, 1), padding=(1, 1), bias=False)
                (bn1): FrozenBatchNorm2d(num_features=18, eps=1e-05)
                (relu): ReLU(inplace=True)
                (conv2): Conv2d(18, 18, kernel_size=(3, 3), stride=(1, 1), padding=(1, 1), bias=False)
                (bn2): FrozenBatchNorm2d(num_features=18, eps=1e-05)
              )
              (2): BasicBlock(
                (conv1): Conv2d(18, 18, kernel_size=(3, 3), stride=(1, 1), padding=(1, 1), bias=False)
                (bn1): FrozenBatchNorm2d(num_features=18, eps=1e-05)
                (relu): ReLU(inplace=True)
                (conv2): Conv2d(18, 18, kernel_size=(3, 3), stride=(1, 1), padding=(1, 1), bias=False)
                (bn2): FrozenBatchNorm2d(num_features=18, eps=1e-05)
              )
              (3): BasicBlock(
                (conv1): Conv2d(18, 18, kernel_size=(3, 3), stride=(1, 1), padding=(1, 1), bias=False)
                (bn1): FrozenBatchNorm2d(num_features=18, eps=1e-05)
                (relu): ReLU(inplace=True)
                (conv2): Conv2d(18, 18, kernel_size=(3, 3), stride=(1, 1), padding=(1, 1), bias=False)
                (bn2): FrozenBatchNorm2d(num_features=18, eps=1e-05)
              )
            )
            (1): Sequential(
              (0): BasicBlock(
                (conv1): Conv2d(36, 36, kernel_size=(3, 3), stride=(1, 1), padding=(1, 1), bias=False)
                (bn1): FrozenBatchNorm2d(num_features=36, eps=1e-05)
                (relu): ReLU(inplace=True)
                (conv2): Conv2d(36, 36, kernel_size=(3, 3), stride=(1, 1), padding=(1, 1), bias=False)
                (bn2): FrozenBatchNorm2d(num_features=36, eps=1e-05)
              )
              (1): BasicBlock(
                (conv1): Conv2d(36, 36, kernel_size=(3, 3), stride=(1, 1), padding=(1, 1), bias=False)
                (bn1): FrozenBatchNorm2d(num_features=36, eps=1e-05)
                (relu): ReLU(inplace=True)
                (conv2): Conv2d(36, 36, kernel_size=(3, 3), stride=(1, 1), padding=(1, 1), bias=False)
                (bn2): FrozenBatchNorm2d(num_features=36, eps=1e-05)
              )
              (2): BasicBlock(
                (conv1): Conv2d(36, 36, kernel_size=(3, 3), stride=(1, 1), padding=(1, 1), bias=False)
                (bn1): FrozenBatchNorm2d(num_features=36, eps=1e-05)
                (relu): ReLU(inplace=True)
                (conv2): Conv2d(36, 36, kernel_size=(3, 3), stride=(1, 1), padding=(1, 1), bias=False)
                (bn2): FrozenBatchNorm2d(num_features=36, eps=1e-05)
              )
              (3): BasicBlock(
                (conv1): Conv2d(36, 36, kernel_size=(3, 3), stride=(1, 1), padding=(1, 1), bias=False)
                (bn1): FrozenBatchNorm2d(num_features=36, eps=1e-05)
                (relu): ReLU(inplace=True)
                (conv2): Conv2d(36, 36, kernel_size=(3, 3), stride=(1, 1), padding=(1, 1), bias=False)
                (bn2): FrozenBatchNorm2d(num_features=36, eps=1e-05)
              )
            )
            (2): Sequential(
              (0): BasicBlock(
                (conv1): Conv2d(72, 72, kernel_size=(3, 3), stride=(1, 1), padding=(1, 1), bias=False)
                (bn1): FrozenBatchNorm2d(num_features=72, eps=1e-05)
                (relu): ReLU(inplace=True)
                (conv2): Conv2d(72, 72, kernel_size=(3, 3), stride=(1, 1), padding=(1, 1), bias=False)
                (bn2): FrozenBatchNorm2d(num_features=72, eps=1e-05)
              )
              (1): BasicBlock(
                (conv1): Conv2d(72, 72, kernel_size=(3, 3), stride=(1, 1), padding=(1, 1), bias=False)
                (bn1): FrozenBatchNorm2d(num_features=72, eps=1e-05)
                (relu): ReLU(inplace=True)
                (conv2): Conv2d(72, 72, kernel_size=(3, 3), stride=(1, 1), padding=(1, 1), bias=False)
                (bn2): FrozenBatchNorm2d(num_features=72, eps=1e-05)
              )
              (2): BasicBlock(
                (conv1): Conv2d(72, 72, kernel_size=(3, 3), stride=(1, 1), padding=(1, 1), bias=False)
                (bn1): FrozenBatchNorm2d(num_features=72, eps=1e-05)
                (relu): ReLU(inplace=True)
                (conv2): Conv2d(72, 72, kernel_size=(3, 3), stride=(1, 1), padding=(1, 1), bias=False)
                (bn2): FrozenBatchNorm2d(num_features=72, eps=1e-05)
              )
              (3): BasicBlock(
                (conv1): Conv2d(72, 72, kernel_size=(3, 3), stride=(1, 1), padding=(1, 1), bias=False)
                (bn1): FrozenBatchNorm2d(num_features=72, eps=1e-05)
                (relu): ReLU(inplace=True)
                (conv2): Conv2d(72, 72, kernel_size=(3, 3), stride=(1, 1), padding=(1, 1), bias=False)
                (bn2): FrozenBatchNorm2d(num_features=72, eps=1e-05)
              )
            )
            (3): Sequential(
              (0): BasicBlock(
                (conv1): Conv2d(144, 144, kernel_size=(3, 3), stride=(1, 1), padding=(1, 1), bias=False)
                (bn1): FrozenBatchNorm2d(num_features=144, eps=1e-05)
                (relu): ReLU(inplace=True)
                (conv2): Conv2d(144, 144, kernel_size=(3, 3), stride=(1, 1), padding=(1, 1), bias=False)
                (bn2): FrozenBatchNorm2d(num_features=144, eps=1e-05)
              )
              (1): BasicBlock(
                (conv1): Conv2d(144, 144, kernel_size=(3, 3), stride=(1, 1), padding=(1, 1), bias=False)
                (bn1): FrozenBatchNorm2d(num_features=144, eps=1e-05)
                (relu): ReLU(inplace=True)
                (conv2): Conv2d(144, 144, kernel_size=(3, 3), stride=(1, 1), padding=(1, 1), bias=False)
                (bn2): FrozenBatchNorm2d(num_features=144, eps=1e-05)
              )
              (2): BasicBlock(
                (conv1): Conv2d(144, 144, kernel_size=(3, 3), stride=(1, 1), padding=(1, 1), bias=False)
                (bn1): FrozenBatchNorm2d(num_features=144, eps=1e-05)
                (relu): ReLU(inplace=True)
                (conv2): Conv2d(144, 144, kernel_size=(3, 3), stride=(1, 1), padding=(1, 1), bias=False)
                (bn2): FrozenBatchNorm2d(num_features=144, eps=1e-05)
              )
              (3): BasicBlock(
                (conv1): Conv2d(144, 144, kernel_size=(3, 3), stride=(1, 1), padding=(1, 1), bias=False)
                (bn1): FrozenBatchNorm2d(num_features=144, eps=1e-05)
                (relu): ReLU(inplace=True)
                (conv2): Conv2d(144, 144, kernel_size=(3, 3), stride=(1, 1), padding=(1, 1), bias=False)
                (bn2): FrozenBatchNorm2d(num_features=144, eps=1e-05)
              )
            )
          )
          (fuse_layers): ModuleList(
            (0): ModuleList(
              (0): None
              (1): Sequential(
                (0): Conv2d(36, 18, kernel_size=(1, 1), stride=(1, 1), bias=False)
                (1): FrozenBatchNorm2d(num_features=18, eps=1e-05)
                (2): Upsample(scale_factor=2.0, mode=nearest)
              )
              (2): Sequential(
                (0): Conv2d(72, 18, kernel_size=(1, 1), stride=(1, 1), bias=False)
                (1): FrozenBatchNorm2d(num_features=18, eps=1e-05)
                (2): Upsample(scale_factor=4.0, mode=nearest)
              )
              (3): Sequential(
                (0): Conv2d(144, 18, kernel_size=(1, 1), stride=(1, 1), bias=False)
                (1): FrozenBatchNorm2d(num_features=18, eps=1e-05)
                (2): Upsample(scale_factor=8.0, mode=nearest)
              )
            )
            (1): ModuleList(
              (0): Sequential(
                (0): Sequential(
                  (0): Conv2d(18, 36, kernel_size=(3, 3), stride=(2, 2), padding=(1, 1), bias=False)
                  (1): FrozenBatchNorm2d(num_features=36, eps=1e-05)
                )
              )
              (1): None
              (2): Sequential(
                (0): Conv2d(72, 36, kernel_size=(1, 1), stride=(1, 1), bias=False)
                (1): FrozenBatchNorm2d(num_features=36, eps=1e-05)
                (2): Upsample(scale_factor=2.0, mode=nearest)
              )
              (3): Sequential(
                (0): Conv2d(144, 36, kernel_size=(1, 1), stride=(1, 1), bias=False)
                (1): FrozenBatchNorm2d(num_features=36, eps=1e-05)
                (2): Upsample(scale_factor=4.0, mode=nearest)
              )
            )
            (2): ModuleList(
              (0): Sequential(
                (0): Sequential(
                  (0): Conv2d(18, 18, kernel_size=(3, 3), stride=(2, 2), padding=(1, 1), bias=False)
                  (1): FrozenBatchNorm2d(num_features=18, eps=1e-05)
                  (2): ReLU(inplace=True)
                )
                (1): Sequential(
                  (0): Conv2d(18, 72, kernel_size=(3, 3), stride=(2, 2), padding=(1, 1), bias=False)
                  (1): FrozenBatchNorm2d(num_features=72, eps=1e-05)
                )
              )
              (1): Sequential(
                (0): Sequential(
                  (0): Conv2d(36, 72, kernel_size=(3, 3), stride=(2, 2), padding=(1, 1), bias=False)
                  (1): FrozenBatchNorm2d(num_features=72, eps=1e-05)
                )
              )
              (2): None
              (3): Sequential(
                (0): Conv2d(144, 72, kernel_size=(1, 1), stride=(1, 1), bias=False)
                (1): FrozenBatchNorm2d(num_features=72, eps=1e-05)
                (2): Upsample(scale_factor=2.0, mode=nearest)
              )
            )
            (3): ModuleList(
              (0): Sequential(
                (0): Sequential(
                  (0): Conv2d(18, 18, kernel_size=(3, 3), stride=(2, 2), padding=(1, 1), bias=False)
                  (1): FrozenBatchNorm2d(num_features=18, eps=1e-05)
                  (2): ReLU(inplace=True)
                )
                (1): Sequential(
                  (0): Conv2d(18, 18, kernel_size=(3, 3), stride=(2, 2), padding=(1, 1), bias=False)
                  (1): FrozenBatchNorm2d(num_features=18, eps=1e-05)
                  (2): ReLU(inplace=True)
                )
                (2): Sequential(
                  (0): Conv2d(18, 144, kernel_size=(3, 3), stride=(2, 2), padding=(1, 1), bias=False)
                  (1): FrozenBatchNorm2d(num_features=144, eps=1e-05)
                )
              )
              (1): Sequential(
                (0): Sequential(
                  (0): Conv2d(36, 36, kernel_size=(3, 3), stride=(2, 2), padding=(1, 1), bias=False)
                  (1): FrozenBatchNorm2d(num_features=36, eps=1e-05)
                  (2): ReLU(inplace=True)
                )
                (1): Sequential(
                  (0): Conv2d(36, 144, kernel_size=(3, 3), stride=(2, 2), padding=(1, 1), bias=False)
                  (1): FrozenBatchNorm2d(num_features=144, eps=1e-05)
                )
              )
              (2): Sequential(
                (0): Sequential(
                  (0): Conv2d(72, 144, kernel_size=(3, 3), stride=(2, 2), padding=(1, 1), bias=False)
                  (1): FrozenBatchNorm2d(num_features=144, eps=1e-05)
                )
              )
              (3): None
            )
          )
          (relu): ReLU(inplace=True)
        )
      )
    )
  )
  (proposal_generator): RPN(
    (rpn_head): StandardRPNHead(
      (conv): Conv2d(256, 256, kernel_size=(3, 3), stride=(1, 1), padding=(1, 1))
      (objectness_logits): Conv2d(256, 15, kernel_size=(1, 1), stride=(1, 1))
      (anchor_deltas): Conv2d(256, 60, kernel_size=(1, 1), stride=(1, 1))
    )
    (anchor_generator): DefaultAnchorGenerator(
      (cell_anchors): BufferList()
    )
  )
  (roi_heads): StandardROIHeads(
    (box_pooler): ROIPooler(
      (level_poolers): ModuleList(
        (0): ROIAlign(output_size=(7, 7), spatial_scale=0.25, sampling_ratio=0, aligned=True)
        (1): ROIAlign(output_size=(7, 7), spatial_scale=0.125, sampling_ratio=0, aligned=True)
        (2): ROIAlign(output_size=(7, 7), spatial_scale=0.0625, sampling_ratio=0, aligned=True)
        (3): ROIAlign(output_size=(7, 7), spatial_scale=0.03125, sampling_ratio=0, aligned=True)
      )
    )
    (box_head): FastRCNNConvFCHead(
      (flatten): Flatten(start_dim=1, end_dim=-1)
      (fc1): Linear(in_features=12544, out_features=1024, bias=True)
      (fc_relu1): ReLU()
      (fc2): Linear(in_features=1024, out_features=1024, bias=True)
      (fc_relu2): ReLU()
    )
    (box_predictor): FastRCNNOutputLayers(
      (cls_score): Linear(in_features=1024, out_features=2, bias=True)
      (bbox_pred): Linear(in_features=1024, out_features=4, bias=True)
    )
    (keypoint_pooler): ROIPooler(
      (level_poolers): ModuleList(
        (0): ROIAlign(output_size=(14, 14), spatial_scale=0.25, sampling_ratio=0, aligned=True)
        (1): ROIAlign(output_size=(14, 14), spatial_scale=0.125, sampling_ratio=0, aligned=True)
        (2): ROIAlign(output_size=(14, 14), spatial_scale=0.0625, sampling_ratio=0, aligned=True)
        (3): ROIAlign(output_size=(14, 14), spatial_scale=0.03125, sampling_ratio=0, aligned=True)
      )
    )
    (keypoint_head): KRCNNConvDeconvUpsampleHead(
      (conv_fcn1): Conv2d(256, 512, kernel_size=(3, 3), stride=(1, 1), padding=(1, 1))
      (conv_fcn_relu1): ReLU()
      (conv_fcn2): Conv2d(512, 512, kernel_size=(3, 3), stride=(1, 1), padding=(1, 1))
      (conv_fcn_relu2): ReLU()
      (conv_fcn3): Conv2d(512, 512, kernel_size=(3, 3), stride=(1, 1), padding=(1, 1))
      (conv_fcn_relu3): ReLU()
      (conv_fcn4): Conv2d(512, 512, kernel_size=(3, 3), stride=(1, 1), padding=(1, 1))
      (conv_fcn_relu4): ReLU()
      (conv_fcn5): Conv2d(512, 512, kernel_size=(3, 3), stride=(1, 1), padding=(1, 1))
      (conv_fcn_relu5): ReLU()
      (conv_fcn6): Conv2d(512, 512, kernel_size=(3, 3), stride=(1, 1), padding=(1, 1))
      (conv_fcn_relu6): ReLU()
      (conv_fcn7): Conv2d(512, 512, kernel_size=(3, 3), stride=(1, 1), padding=(1, 1))
      (conv_fcn_relu7): ReLU()
      (conv_fcn8): Conv2d(512, 512, kernel_size=(3, 3), stride=(1, 1), padding=(1, 1))
      (conv_fcn_relu8): ReLU()
      (score_lowres): ConvTranspose2d(512, 17, kernel_size=(4, 4), stride=(2, 2), padding=(1, 1))
    )
  )
)
[32m[02/24 14:34:45 d2.data.datasets.coco]: [0mLoaded 5000 images in COCO format from datasets/coco/annotations/person_keypoints_train2017.json
[32m[02/24 14:34:45 d2.data.datasets.coco]: [0mLoaded 5000 images in COCO format from datasets/coco/annotations/person_keypoints_val2017.json
[32m[02/24 14:34:45 d2.data.build]: [0mRemoved 4614 images with no usable annotations. 5386 images left.
…
